…
    example = apply_function_on_filtered_inputs(example, i, offset=offset)
  File "/home/z5313567/.local/lib/python3.10/site-packages/datasets/arrow_dataset.py", line 3330, in apply_function_on_filtered_inputs
    processed_inputs = function(*fn_args, *additional_args, **fn_kwargs)
  File "/srv/scratch/z5313567/thesis/wav2vec2/code/eval_LM_2.py", line 781, in map_to_result
    logits_LM_1 = model_LM_1(**input_values_LM_1).logits
TypeError: Wav2Vec2ForCTC(
  (wav2vec2): Wav2Vec2Model(
    (feature_extractor): Wav2Vec2FeatureEncoder(
      (conv_layers): ModuleList(
        (0): Wav2Vec2GroupNormConvLayer(
          (conv): Conv1d(1, 512, kernel_size=(10,), stride=(5,), bias=False)
          (activation): GELUActivation()
          (layer_norm): GroupNorm(512, 512, eps=1e-05, affine=True)
        )
        (1-4): 4 x Wav2Vec2NoLayerNormConvLayer(
          (conv): Conv1d(512, 512, kernel_size=(3,), stride=(2,), bias=False)
          (activation): GELUActivation()
        )
        (5-6): 2 x Wav2Vec2NoLayerNormConvLayer(
          (conv): Conv1d(512, 512, kernel_size=(2,), stride=(2,), bias=False)
          (activation): GELUActivation()
        )
      )
    )
    (feature_projection): Wav2Vec2FeatureProjection(
      (layer_norm): LayerNorm((512,), eps=1e-05, elementwise_affine=True)
      (projection): Linear(in_features=512, out_features=768, bias=True)
      (dropout): Dropout(p=0.0, inplace=False)
    )
    (encoder): Wav2Vec2Encoder(
      (pos_conv_embed): Wav2Vec2PositionalConvEmbedding(
        (conv): Conv1d(768, 768, kernel_size=(128,), stride=(1,), padding=(64,), groups=16)
        (padding): Wav2Vec2SamePadLayer()
        (activation): GELUActivation()
      )
      (layer_norm): LayerNorm((768,), eps=1e-05, elementwise_affine=True)
      (dropout): Dropout(p=0.1, inplace=False)
      (layers): ModuleList(
        (0-11): 12 x Wav2Vec2EncoderLayer(
          (attention): Wav2Vec2Attention(
            (k_proj): Linear(in_features=768, out_features=768, bias=True)
            (v_proj): Linear(in_features=768, out_features=768, bias=True)
            (q_proj): Linear(in_features=768, out_features=768, bias=True)
            (out_proj): Linear(in_features=768, out_features=768, bias=True)
          )
          (dropout): Dropout(p=0.1, inplace=False)
          (layer_norm): LayerNorm((768,), eps=1e-05, elementwise_affine=True)
          (feed_forward): Wav2Vec2FeedForward(
            (intermediate_dropout): Dropout(p=0.1, inplace=False)
            (intermediate_dense): Linear(in_features=768, out_features=3072, bias=True)
            (intermediate_act_fn): GELUActivation()
            (output_dense): Linear(in_features=3072, out_features=768, bias=True)
            (output_dropout): Dropout(p=0.1, inplace=False)
          )
          (final_layer_norm): LayerNorm((768,), eps=1e-05, elementwise_affine=True)
        )
      )
    )
  )
  (dropout): Dropout(p=0.0, inplace=False)
  (lm_head): Linear(in_features=768, out_features=32, bias=True)
) argument after ** must be a mapping, not Tensor
Fri Jul 28 01:19:55 AEST 2023
Found cached dataset csv (/srv/scratch/chacmod/.cache/huggingface/datasets/AusKidTalk-eval/csv/default-c29da4653c6396a5/0.0.0/6954658bab30a358235fa864b05cf819af0e179325c740e4bc853bcc7ec513e1)
------------------------------------------------------------------------
                 run_finetune_kids.py                                   
…
